models/03_fashion_mnist_model_v2.pth (torch, 35621 bytes, 10 tensors)

cnn_block_1.0.weight f4 [10, 1, 3, 3]
000000 82 56 7a 3e 04 c9 8c 3e dd 7b cf be 42 72 9a 3e
       0.24447063 0.27497113 -0.40524188 0.30165297
000010 0d 38 00 3e 06 7c 31 3d 39 d3 9d be e8 5b c9 3d
       0.12521382 0.04333117 -0.30825213 0.09831983
000020 e6 ae a6 3e 18 be 77 be 6b 43 c5 3e c9 f7 8f bd
       0.32555312 -0.24193609 0.38527998 -0.07029683
000030 75 17 64 3e f3 00 d9 3e e7 14 79 3e 83 0a 71 be
       0.22274573 0.42383537 0.2432438 -0.23539166
000040 ff ff a8 3e 06 3f 05 3e 34 2c b0 be 14 20 ef bd
       0.3300781 0.13012323 -0.34408724 -0.1167604
000050 c4 30 af 3d aa 98 2f bf 13 13 31 bf 4c 40 a5 3d
       0.08554223 -0.6859232 -0.6916973 0.08068904
000060 b9 34 45 bf 1e 14 21 bf b3 96 18 be d2 b7 2e bf
       -0.77033573 -0.6292132 -0.14901237 -0.6824924
000070 15 23 55 bf db 9d 96 be e2 1f 86 3e ff a3 2c bf
       -0.83256656 -0.2941731 0.261962 -0.6743774
000080 b4 a5 ca 3e b6 84 a7 3e 26 7b 18 be 9a 7b 03 3f
       0.39579546 0.32718438 -0.14890727 0.51360476
000090 05 bf 9d 3d 35 a3 94 3e 6c a8 40 bc 3c 07 82 be
       0.0770245 0.29030767 -0.011758905 -0.25396144
0000a0 48 4d 13 3e c0 6e 6e be 30 a2 b3 bb 93 07 cf 3e
       0.14384949 -0.23284435 -0.0054819807 0.40435466
0000b0 d3 6e f3 3c 40 8e 16 be a9 c4 43 3e 5a a3 63 3d
       0.029715931 -0.14702702 0.19117989 0.055575706
0000c0 9e 8d 2f 3e b3 71 4f be f7 8c a9 be e2 1c 02 be
       0.17143866 -0.20258217 -0.3311536 -0.1270633
0000d0 5e 0f 82 be 99 51 8c 3e 34 41 29 3e ea b0 65 3e
       -0.2540235 0.27406004 0.1652878 0.22430769
0000e0 63 66 9b 3d 2a 86 bb 3d 93 0b 97 3e ed 0f b2 be
       0.07587888 0.09156449 0.29501018 -0.34777775
0000f0 2f 9d 87 be cc e0 20 bf fe d6 80 be d0 dc f8 bd
       -0.2648711 -0.6284301 -0.25164026 -0.12151492
000100 a4 46 10 3e 10 99 8b be f2 76 93 3e 71 ba 73 be
       0.14089447 -0.27265215 0.28801686 -0.2380159
000110 bd c0 9c be 21 55 f9 bd 0c b1 d9 3e bc ce 00 3e
       -0.30615798 -0.1217444 0.4251789 0.12578863
000120 65 ee 24 3f d5 88 be be 65 40 21 bf c5 6c 1c be
       0.6442626 -0.3721377 -0.62988883 -0.15275867
000130 2a fa d8 be 95 6e d0 bc 5e 04 d4 3e 1f 30 ff 3e
       -0.4237836 -0.025443355 0.41409582 0.498414
000140 24 9e 3f bd c7 75 68 be 0d 6e 34 3e 46 26 0a be
       -0.046781674 -0.22701178 0.17620106 -0.13491163
000150 1e a2 4e 3e d9 26 a4 bd c2 fb 41 3e 82 c8 84 be
       0.2017903 -0.08015222 0.18943694 -0.25934225
000160 11 56 2c be d1 18 d0 3d
       -0.16829707 0.10160983

cnn_block_1.0.bias f4 [10]
000000 6e d0 26 3d f4 7a d7 3d 7f d6 82 3e 06 97 99 3d
       0.040726118 0.10521498 0.25554273 0.074995086
000010 a2 d7 13 be 68 e4 32 be 5e 86 14 3e 67 89 e5 bd
       -0.14437726 -0.17469943 0.14504382 -0.11207848
000020 69 7d 1a be 1c 8f a5 be
       -0.15086903 -0.32335746

cnn_block_1.2.weight f4 [10, 10, 3, 3]
000000 4f e8 4f 3e 01 ae e7 3d 87 18 20 bd 8d 35 8f bd
       0.20303462 0.113124855 -0.03908589 -0.06992636
000010 d8 b0 1a be 23 97 83 be bf 2b 31 be af b5 5c be
       -0.15106523 -0.25701246 -0.17301844 -0.21553682
000020 e8 ac 6c be 68 25 46 bc 7e d7 13 3d 08 a0 1a be
       -0.23112833 -0.012093879 0.03609418 -0.1510011
000030 df b6 2a be 61 e1 a4 be 94 6b b8 be 03 d9 d2 bd
       -0.16671322 -0.322032 -0.36019576 -0.10295298
000040 fe 3a 4a be 2f 98 a2 be 96 aa 92 bb f5 39 4c bd
       -0.19749066 -0.31756732 -0.004475902 -0.04985996
000050 e6 a4 02 3e 6b f1 20 3e a1 e4 78 3e 77 e9 55 3e
       0.12758216 0.15717094 0.24305965 0.20889841
000060 39 bb 5c 3d 86 33 75 3d 3c ba 3b 3e 2b c3 1a be
       0.053889487 0.05986359 0.18332762 -0.15113513
000070 46 9b 2b bd 6c e6 23 be 3e 3f 06 bc fa f8 d8 bc
       -0.041896127 -0.16005868 -0.008193789 -0.026485909
000080 98 3f 86 bd 1f c6 a5 3d 58 be e0 bc e1 2b 70 3d
       -0.06555098 0.08094429 -0.027434513 0.058635596
000090 24 c5 f4 bd 62 53 34 be e9 51 10 bd 44 64 89 bc
       -0.11951664 -0.17609933 -0.035234366 -0.016771443
0000a0 f2 ba be 3c ca 5c db bd 20 64 bf 3d 29 05 e7 bd
       0.023282502 -0.107110575 0.09345269 -0.11280281
0000b0 c2 50 4c bd 19 9b bc 3c 9e 64 5d 3d 71 86 aa 3d
       -0.049881704 0.023023175 0.054051034 0.08326424
0000c0 8f c9 c3 3d 66 c5 aa bd 5f 6e e3 3c ae 17 3a bd
       0.095599286 -0.08338432 0.02776259 -0.04543274
0000d0 49 6a 47 bc 59 c5 9f bd e1 6f 6e 3e b6 85 50 3c
       -0.012171336 -0.07801313 0.23284866 0.012727192
0000e0 19 51 b0 3d 94 80 7d 3d aa c0 1f 3d 3b de 04 bd
       0.08609218 0.0618902 0.0390021 -0.032438498
0000f0 52 e7 62 3c 55 85 ef bc 1f d4 a6 bc 7a ae a2 bd
       0.013849096 -0.029238382 -0.02036482 -0.07943435
000100 e8 7c 4c 3d 26 96 51 bc 97 d3 1d bd 5e f2 bc 3d
       0.049923807 -0.012792146 -0.038531866 0.09225915
000110 1d 04 96 3c bf cf c3 bc 01 0e 95 bd 35 f3 1e bc
       0.018312508 -0.023902772 -0.07278062 -0.00970154
000120 b0 04 02 3d 5c 8e bc bb 96 e3 80 bd 88 57 6e bd
       0.03174275 -0.0057542752 -0.062934086 -0.058188945
000130 5d 3d 45 bd 84 2d 2b 3d d1 29 d7 3d d1 39 ad bd
       -0.048154224 0.041791454 0.10506023 -0.08458293
000140 ce 5b 2f 3b b6 01 5f 3d fc 77 9c 3c e9 b9 19 bd
       0.00267576 0.05444499 0.019100182 -0.037530813
000150 8c 5a 61 3d c6 e4 62 3d 2f 76 21 3d d8 bc 97 bc
       0.055017993 0.055393957 0.03941935 -0.018522665
000160 c4 a8 e4 bc d6 a6 38 3c ae fd a2 bb ff 0b 93 be
       -0.027912505 0.011270246 -0.0049740886 -0.2872009
000170 23 46 4c be a6 6f 85 3e d6 df a9 bc 17 67 60 3c
       -0.1994863 0.26061743 -0.020736616 0.0136964535
000180 26 bb ab 3d d8 c0 6d 3d b8 57 0a 3e ab a8 be 3b
       0.08385305 0.05804524 0.13510025 0.0058184466
000190 87 11 81 be 88 79 e7 bd 2b 39 46 3e 94 ae b0 3c
       -0.25208685 -0.11302477 0.19357745 0.02156762
0001a0 f5 0a ba 3d ba 75 2e bd ea e0 05 be 07 87 41 bd
       0.09084121 -0.04259274 -0.13074079 -0.047247913
0001b0 82 62 15 bc fa c7 7a 3d 7b 5c f9 3d 66 c7 1d 3d
       -0.009117724 0.06122587 0.121758424 0.03852024
0001c0 60 f3 a8 bd 32 24 1c bd 37 6a ae bb af 5b c6 3d
       -0.08249545 -0.038120456 -0.0053227204 0.09685456
0001d0 9b 97 9a 3c 9d 0f 8d 3e 70 d3 b8 3e 89 6a 67 3e
       0.01887112 0.27550974 0.36098814 0.22599234
0001e0 59 4d ed bd cf ca 8a 3d a2 67 e4 3c bf e0 31 bd
       -0.115870185 0.06776964 0.027881447 -0.043427225
0001f0 df 25 25 bd 3c 3f 43 3e 96 b8 17 3d 19 b5 81 bd
       -0.04031932 0.19067091 0.03704127 -0.0633337
000200 56 72 54 be 39 5c db bd 99 48 18 be 04 83 a5 3c
       -0.2074674 -0.107109495 -0.14871444 0.020204075
000210 d2 76 36 3e f3 f7 f5 3d ea be 85 3d 93 18 d4 3c
       0.17818764 0.12010183 0.065305546 0.025890624
000220 34 12 13 ba ca 4e a3 bd ab 5e b6 bd 42 8f c7 bd
       -0.00056103175 -0.07974012 -0.08904775 -0.09744121
000230 0f 9f 35 3d f7 0e 57 bd cd 0b b6 bc 92 55 73 bd
       0.044341143 -0.052504506 -0.022222424 -0.059407778
000240 75 01 84 bd 10 c3 00 be 9b ef e6 bd 12 08 49 3d
       -0.064455904 -0.1257441 -0.1127617 0.049079962
000250 71 9d 01 bc 7c fa a9 3d 69 f0 2f 3d f3 f4 42 bd
       -0.007911072 0.08299729 0.042953882 -0.047596883
000260 18 2d b3 bc 41 5c 9e 3d 7e c5 58 bb d1 32 11 be
       -0.021872088 0.0773244 -0.00330767 -0.14179541
000270 59 d9 1a 3d a6 47 c0 bd 43 9f 40 3d 3d 64 b0 3d
       0.037804935 -0.09388666 0.047026884 0.08612869
000280 67 f2 87 3d 72 dd 02 be b2 7a 87 3e 2f 7b 7b 3d
       0.066380315 -0.12779787 0.26460797 0.061396774
000290 23 30 8e bb ab 1e 0c 3e e4 0e 06 bd 8f 14 04 bd
       -0.0043392344 0.13683574 -0.032729045 -0.03224617
0002a0 c6 73 9a 3d f3 da 3e 3d 68 c4 e0 3d 2c 5a d6 bd
       0.07541613 0.046595525 0.109749615 -0.10466418
0002b0 61 fc 85 3d bf 7f a1 3d 3c eb cb 3d c9 ef cb bc
       0.06542278 0.07885694 0.09956977 -0.024894612
0002c0 cb 9b b1 bd 26 67 c2 3c 12 b6 6e 3d 2b de d6 bd
       -0.08672293 0.023730826 0.058279105 -0.10491594
0002d0 67 7a d9 bc c0 ea 86 bd 03 7d 32 bc 30 ed 59 bd
       -0.026547624 -0.06587744 -0.010894063 -0.053204715
0002e0 a5 95 40 bd e0 40 f8 bc a5 a2 c6 bd b9 51 b2 3d
       -0.047017712 -0.030304372 -0.09698991 0.087069936
0002f0 7d ac bc 3d f7 38 8d bc b7 60 4d bc e9 b8 30 bd
       0.09212587 -0.017239077 -0.012535266 -0.043145094
000300 e7 2b c2 bd e3 c5 d5 bd 20 bb 1a 3d d2 5a 63 bd
       -0.0948103 -0.104381345 0.037776113 -0.055506535
000310 52 a4 90 bd 3c ce e4 bb 43 f3 27 bd 6d 87 23 bd
       -0.070625916 -0.006982593 -0.041003477 -0.039924074
000320 84 c0 02 bb e3 bb ac bc 7f 4d 0b bd 97 2a 40 bd
       -0.0019951174 -0.021085685 -0.034009453 -0.046915617
000330 46 35 aa bd 8d 20 ba 3d ee 21 2c bd db 6e d6 3c
       -0.08310942 0.0908824 -0.042024545 0.026175907
000340 b4 3e 1e bd fd d8 04 3c 32 71 ce 3d 19 3e 40 3d
       -0.038634017 0.008108375 0.10080184 0.04693422
000350 bd a9 b1 bd 39 9b 1d 3d 25 3f cb 3d 2a d7 13 3d
       -0.08674953 0.03847811 0.09924153 0.03609387
000360 83 94 90 3d fa cf d4 3d ba 95 84 bc 0f 37 bb 3c
       0.07059576 0.10391231 -0.016184676 0.022853402
000370 c1 3e 96 bd 45 e9 bb bc 38 a0 9a 3d 10 83 54 3d
       -0.07336188 -0.02293838 0.075500906 0.051882803
000380 61 14 8c bd 08 1c ad bd f5 85 93 bd fc 09 d5 bd
       -0.068398245 -0.08452612 -0.07203285 -0.10402295
000390 7b 94 a6 bd ae f6 d7 bc 5f 78 92 3d 18 bd 90 3c
       -0.08133789 -0.026362743 0.07151865 0.017668292
0003a0 5a 25 a4 bd cb 34 ad bd 5a 24 4a 3d 2b 4f a6 bd
       -0.08014937 -0.08457335 0.049351074 -0.08120569
0003b0 a2 d7 84 bc c5 81 50 3d a6 ec 42 bd b5 9a 22 bc
       -0.016216103 0.050905008 -0.047588967 -0.00992458
0003c0 ff 5d fe bb 38 73 c3 bc 36 18 5b bd 89 4c c0 bd
       -0.00776267 -0.023858652 -0.053489886 -0.09389598
0003d0 ce 84 ae bd bd 2e 67 bd d7 37 d1 3d ac d0 53 bd
       -0.08521424 -0.056441057 0.10215729 -0.051712677
0003e0 29 dd 94 bd dc c3 e1 3c c3 aa f9 3c 32 1a 6c 3d
       -0.072687455 0.027559213 0.030476933 0.05764217
0003f0 f3 8f a3 3d 93 8e 70 3d ea 17 d6 bd c0 1d 67 3c
       0.079864405 0.05872972 -0.1045378 0.014106214

cnn_block_1.2.bias f4 [10]
000000 c0 72 d9 3e ca b0 c5 3c 66 61 3c bd 85 c0 d2 3e
       0.4247036 0.024132151 -0.045991324 0.41162506
000010 f1 85 ac bd 28 3d 0c 3d 13 94 74 3e 32 70 80 3e
       -0.08423985 0.03423801 0.23884611 0.25085598
000020 46 20 0d 3e 63 c2 d7 3b
       0.13781843 0.006584452

cnn_block_2.0.weight f4 [10, 10, 3, 3]
000000 e6 a6 06 3c 39 04 b4 bd 2a 5d 6e bd 86 a0 0c bc
       0.008218503 -0.08789868 -0.058194317 -0.008583194
000010 b9 3d fe 3c 00 4f a5 3d 8d eb a6 bd 5e 86 a7 3d
       0.031035291 0.08071709 -0.081503965 0.081799254
000020 f7 b4 bb 3d 0a 30 2f 3d 35 8c aa bd f6 b0 d5 bc
       0.09165376 0.042770423 -0.083275236 -0.026085358
000030 3e 30 07 be 51 00 88 bd cd 24 87 3d 4a 43 8b bc
       -0.13201997 -0.06640685 0.06598816 -0.01699986
000040 4a 45 d6 3c f1 69 99 bd 87 6c 84 3c 15 9d 82 bd
       0.026156086 -0.0749091 0.016165031 -0.06377617
000050 8b ca 57 3d 43 4c 3e bd 5f c3 da bc f6 d9 bb bd
       0.052683394 -0.046459448 -0.026704488 -0.09172432
000060 0b de d3 39 91 00 cd 3d 3e 92 51 3d 4e b8 8c bd
       0.0004041049 0.10009874 0.051164858 -0.06871091
000070 c3 1e 29 bc da 06 4c bd 76 2a a5 bd 5b 5f 93 3d
       -0.010322276 -0.04981122 -0.080647394 0.07195922
000080 47 5d 38 bd 27 04 67 3d af 36 f8 bd 04 a6 f3 bd
       -0.04501083 0.056400444 -0.12119805 -0.11896899
000090 ed 1d e0 3c 6e bf 82 3d 3d f7 97 3b 62 c4 ab bc
       0.02735802 0.063841686 0.0046376274 -0.020967666
0000a0 68 e5 06 3e db 31 b7 bc 39 c9 93 bc f5 db 56 bd
       0.13173449 -0.02236264 -0.018040286 -0.05245586
0000b0 16 ef b1 3d d9 f8 d2 3a 88 15 d4 bc d2 67 2e bd
       0.0868818 0.0016095891 -0.025889173 -0.04257948
0000c0 72 e2 2d bc a3 77 bf bd 96 24 99 bd 84 88 4c 3d
       -0.010613071 -0.09348991 -0.07477681 0.04993488
0000d0 af 70 70 3d 67 78 88 3d 19 d2 a1 bd 68 5c b4 3d
       0.058701213 0.0666359 -0.07901401 0.088066876
0000e0 e1 40 d4 bd 49 64 7e 3d b7 84 96 3d 26 4a 5a 3d
       -0.10363937 0.062107358 0.07349532 0.05329337
0000f0 1d 39 2d 3e 8e 00 0b 3d 3e 75 1a bd c0 68 05 3d
       0.16916318 0.033936076 -0.037709467 0.0325706
000100 55 4d 0a bd bb 08 d4 3c db 66 d9 bc 7b 59 82 3c
       -0.033765156 0.02588307 -0.026538303 0.015911808
000110 dd 66 d7 bd a7 32 0e bc 56 a2 cc bd 16 ec 89 bd
       -0.105176665 -0.008679069 -0.099919006 -0.06734483
000120 5b cc 8f bd 61 91 87 bd c9 08 b0 bc fa d7 b1 3d
       -0.070213996 -0.06619526 -0.021488564 0.086837724
000130 0b 4a f5 3d 65 48 20 3d b5 fd 44 bc 90 dd ed bd
       0.11977013 0.03913154 -0.012023379 -0.11614525
000140 eb 43 9d 3c 97 fc 4c 3d 01 62 c0 bd 2c ad b4 3d
       0.019197425 0.050045576 -0.09393693 0.088220924
000150 0b 96 88 3d 8f bf 5c bc 5e 21 51 bc 9a 08 25 3d
       0.066692434 -0.0134734055 -0.012764303 0.040291406
000160 ff c7 0b 3c 5c 01 8e 3d 3e 32 b2 bb b4 62 c4 bd
       0.0085315695 0.06933853 -0.0054381182 -0.095891386
000170 fb a8 04 be 93 91 c3 3e 2c ba ac bd 3a 97 ea 3b
       -0.12955086 0.38197002 -0.08433947 0.007159141
000180 9e f9 86 3e 28 2f c4 3d 76 41 dc 3a 99 7c 45 be
       0.26362318 0.09579307 0.0016804177 -0.19285811
000190 16 6c 03 be 45 76 ed bd b5 eb bd bd 76 52 99 3c
       -0.128342 -0.11594824 -0.09273473 0.018716078
0001a0 a4 00 10 bd eb 1c 05 3e c9 50 d3 bc c3 67 01 3e
       -0.03515686 0.12999313 -0.025795357 0.12637238
0001b0 a0 70 81 3d dc 4c 18 3d cb e1 5b bd 8b 33 b0 bd
       0.0632031 0.037182674 -0.05368213 -0.08603581
0001c0 73 3b 6a 3b be b2 7e bd 8d 9b b1 3d 1e 51 cf bd
       0.0035741 -0.06218218 0.08672247 -0.10122894
0001d0 11 ca 41 3d 3d d5 38 3d 78 50 83 3e 48 20 34 3e
       0.047311846 0.045125235 0.2564733 0.1759044
0001e0 2c 37 de be f9 2f 79 3e f4 76 49 3e e6 33 22 bf
       -0.43401468 0.24334706 0.19674283 -0.6336044
0001f0 96 ae 6f bd d1 30 45 bd aa 0a 78 bd 14 6b 8d 3d
       -0.058516107 -0.048142258 -0.060557045 0.06905189
000200 73 72 0b 3e e3 18 2a be e0 4c 95 3c 5b 34 d2 3d
       0.13617878 -0.16611056 0.018225133 0.10263892
000210 b2 6d 9a bd 68 00 ea bd cf e8 80 bc da 04 69 3e
       -0.07540454 -0.11425859 -0.015736012 0.22755757
000220 11 26 a7 3d 18 ec 6c bc be 2a db 3c d7 4d 1f 3d
       0.081615575 -0.014460586 0.02675378 0.038892593
000230 80 3b ff bd b7 17 5e be ca db 13 be fc 91 e3 bd
       -0.124625206 -0.21688734 -0.14439312 -0.11111829
000240 79 63 c2 be 87 11 d6 bc d3 2a 9c 3e c3 a9 a5 be
       -0.37966517 -0.026131405 0.30501422 -0.3235608
000250 c9 35 ae bd 24 e5 d5 3e 68 41 a7 be 2c 91 83 3c
       -0.085063525 0.41776383 -0.32667089 0.016060434
000260 f8 b3 1d 3e 84 da 37 bc 30 17 1a 3d 16 57 99 3e
       0.15400684 -0.011221532 0.03761977 0.29949254
000270 0e 55 a6 be 47 e9 76 3d be 85 15 3e 47 c6 c4 be
       -0.32486767 0.060281064 0.146018 -0.38432524
000280 b9 5c 17 be 4d b7 80 bc 38 7e 86 be 4d 79 72 bd
       -0.14781465 -0.015712405 -0.26268172 -0.059197713
000290 e2 7e 71 3e e6 9d 53 be 15 22 1e bc 54 c0 86 3e
       0.23583558 -0.20665702 -0.0096516805 0.2631861
0002a0 ff 01 03 be 61 32 a5 bc 2b d8 1e 3e 21 4a aa 3d
       -0.1279373 -0.020165624 0.15512149 0.0831492
0002b0 08 89 0b be 7c 95 83 be 22 18 1a 3e 4c 24 03 3e
       -0.13626492 -0.25699985 0.15048268 0.12806815
0002c0 9b ec 8d bc b7 b7 51 bc 7e 5b 08 3e b3 01 57 3e
       -0.017324736 -0.012800149 0.13316151 0.20996742
0002d0 32 83 e4 bd 5b 1d bf 3c fa 14 23 bc c3 d3 f2 bd
       -0.11157836 0.023329427 -0.009953732 -0.118567966
0002e0 bd 87 44 be 6b b3 4b be ee 8f 53 bc bc 06 1c bd
       -0.19192405 -0.19892661 -0.0129127335 -0.03809236
0002f0 87 9a 80 3c af 5e e8 bd 03 54 0a bc f5 7e 83 bc
       0.015698684 -0.113461845 -0.0084428815 -0.016051749
000300 95 e5 ab bd be ad 7a 3d d1 73 b8 bc 19 9d 63 bd
       -0.08393399 0.06120085 -0.022516163 -0.055569742
000310 7f fa 1c 3d e3 5e 32 3d 0e 65 a5 3d cb d4 87 3d
       0.03832483 0.043547522 0.08075915 0.06632384
000320 c9 1e c7 3d b5 61 9e bd 49 f4 8a 3d e9 9d b5 3d
       0.09722669 -0.0773348 0.06784875 0.088680096
000330 0d 1b 55 bd 95 69 c6 3d 31 b7 a1 3d a1 5f 68 bb
       -0.05202775 0.09688107 0.07896269 -0.003545739
000340 f8 0b 16 3e 0e d1 cf 3d 57 c5 64 be 13 3e e5 3d
       0.14653003 0.10147296 -0.22340904 0.1119348
000350 ab 10 01 3e 47 99 89 be 13 7d 8b 3b be b5 06 be
       0.12604015 -0.26874754 0.0042568534 -0.13155267
000360 52 87 56 3d 5a 5f 6c 3d 24 99 ee 3d d9 f2 10 be
       0.052375145 0.05770812 0.11650303 -0.14155139
000370 8a 8b b4 3d 88 0b 00 3e 29 0e 8b bd d6 cc 3b 3d
       0.088156775 0.12504399 -0.0678981 0.045849644
000380 3c fd c6 3c c5 45 d8 3d 61 06 06 3d c7 d4 f5 3d
       0.024290673 0.105601825 0.032720927 0.12003475
000390 6a 77 dd 3c b0 94 2a 3e d1 5e b6 3d df eb f9 bd
       0.02703448 0.16658282 0.089048035 -0.12203192
0003a0 35 8c b3 bc 3c ea 8b bd 3b e5 73 bd ba 06 ec bc
       -0.021917442 -0.06831786 -0.059544783 -0.028811801
0003b0 d9 c2 2f bd 77 8e 62 be 8a 58 cf 3a 0f 0c 03 3e
       -0.04291043 -0.22124659 0.0015819233 0.12797569
0003c0 6f 45 18 be 7d 5b c6 bc 4e 92 e9 bc 7e 41 67 bd
       -0.14870237 -0.024213547 -0.028512146 -0.056458943
0003d0 ed 5b f1 b9 20 c5 29 3e 1d 6e 0a be 21 70 15 3e
       -0.00046035592 0.16579103 -0.13518567 0.14593555
0003e0 a3 b7 0b 3e 0d c7 82 be 18 63 ad 3c 45 4c 7c 3d
       0.1364427 -0.2554249 0.021165416 0.061596174
0003f0 97 71 25 be bd dd 13 be c0 9a 02 3e b5 e6 5e bd
       -0.16156612 -0.14440055 0.12754345 -0.054419238

cnn_block_2.0.bias f4 [10]
000000 6d 29 b9 bd 41 d5 33 be e9 75 e5 3c 0c 6e 5c 3d
       -0.090411045 -0.17561819 0.028010326 0.053815886
000010 18 65 19 be 80 b3 14 3c ca 81 19 bd 00 fe c4 3e
       -0.1497997 0.009075999 -0.037477292 0.38475037
000020 a6 b8 d7 3e f4 37 45 3e
       0.42133063 0.19259626

cnn_block_2.2.weight f4 [10, 10, 3, 3]
000000 55 0c c2 bd a3 34 99 bd 00 53 0b bd a3 38 64 bd
       -0.094750084 -0.07480743 -0.0340147 -0.055718075
000010 9d 2e 05 3d 16 f9 b4 3b cb 80 de 3c 62 e4 e1 bc
       0.032515157 0.0055228574 0.027161023 -0.027574722
000020 42 e1 bd 3d ef ae 8b 3d 5c 74 91 bd 0f 01 3c be
       0.0927148 0.06820475 -0.07102272 -0.18359779
000030 8a 9d b5 bd c1 1c ae 3b 1b 83 ab be 10 30 32 3d
       -0.08867939 0.0053134863 -0.33498463 0.043502867
000040 f8 7d 87 3e 1c ab 36 be fc 59 d6 bc 1a bc bf 3d
       0.26463294 -0.1783871 -0.026165955 0.093620494
000050 22 3c 97 3d 75 34 06 be cb d5 33 3d 02 f1 da bd
       0.07384516 -0.13105948 0.04390506 -0.106905
000060 7d 39 87 bb d6 bf 00 3e a2 ce c1 bd 0d 78 b9 bd
       -0.004126726 0.1257318 -0.0946324 -0.09056101
000070 fa ef a7 3e cc ac 5e be 25 5d d7 be a8 cb 94 bb
       0.32800275 -0.21745604 -0.4206325 -0.0045408793
000080 66 0c 14 3a 94 be 8d be e6 f1 88 bd 11 54 85 3e
       0.00056475995 -0.27684462 -0.066867635 0.260407
000090 5b 3e 6f bd fc da 82 3d a7 21 16 3e f9 0b c7 bd
       -0.058409076 0.06389424 0.14661275 -0.097190805
0000a0 e8 f0 4a bd 2e bf a0 bd 49 53 16 be 65 50 10 be
       -0.049546152 -0.07848965 -0.14680208 -0.14093168
0000b0 bd 06 1f be e9 31 88 bd 30 2d 30 bd a6 68 cf 3d
       -0.15529914 -0.066501446 -0.043011844 0.10127382
0000c0 c5 92 9b bc 34 73 19 3d f5 7a 9d 3d 8c 06 a3 bb
       -0.018990884 0.037463382 0.07689468 -0.0049751457
0000d0 63 e4 73 bd f5 79 96 bd f5 c3 10 bd b7 16 24 3d
       -0.05954398 -0.0734748 -0.03534313 0.040060725
0000e0 e7 9d b6 bd 6b a4 f8 bb c8 25 2e 3d ad 87 b0 3d
       -0.08916836 -0.0075879595 0.0425165 0.08619628
0000f0 54 f8 34 3d 6a a7 fe 3c ac 73 a2 3d 5c 06 98 be
       0.044182137 0.031085689 0.07932219 -0.29692352
000100 46 73 e6 bd d2 5c 05 bf a1 55 f1 be 2c c3 98 be
       -0.112524554 -0.5209476 -0.47135642 -0.29836404
000110 3d ed 33 be 35 67 e0 3e d9 6a be 3e 9b 93 a0 3e
       -0.17570968 0.4382874 0.37190893 0.31362614
000120 0a 7c 25 3d 5c 2e a9 be ef c7 23 be 60 bc b4 3e
       0.040401496 -0.33043182 -0.15994237 0.3529997
000130 3f 59 ff 3d 06 71 c7 3e 82 33 7d be 65 df b9 be
       0.12468194 0.38953418 -0.2472668 -0.3630325
000140 16 a6 b5 be 7b d5 ba bd 02 53 51 bc 50 48 fe bd
       -0.35478276 -0.091227494 -0.012776138 -0.12416136
000150 05 e2 ae bc b0 28 0f be 5a c2 17 bd 8d 99 14 3d
       -0.021348009 -0.13980365 -0.037050582 0.03627925
000160 9e 29 97 bd 86 79 8c bd 6a 17 97 3d 6c 9b 48 bc
       -0.07380985 -0.06859116 0.07377513 -0.012244087
000170 75 df 14 bc 4d e9 28 bd 87 b6 c2 3c b0 ab b2 bd
       -0.009086479 -0.041238118 0.023768676 -0.08724153
000180 a9 5f 02 3e 5d cf e3 bc be b9 e8 bc 18 03 26 3d
       0.12731804 -0.02780884 -0.028408881 0.040530294
000190 bd a0 b5 3d 1e 40 a0 bd c4 53 ba 3d ab 05 39 be
       0.08868549 -0.078247294 0.09098008 -0.18068568
0001a0 a6 59 3a bc 32 63 be 3d ba 7d cb be 07 62 f5 3d
       -0.011373913 0.09296264 -0.3974436 0.11981588
0001b0 55 3d 14 bd e7 d5 0d 3d 6e 06 9b 3d 4a 1e bd 3d
       -0.036191303 0.03462782 0.07569586 0.09234293
0001c0 c7 f7 2a be 02 4d cd bd d4 44 4c 3e d1 70 31 be
       -0.16696082 -0.10024454 0.19948131 -0.17328192
0001d0 20 8d b6 3c ff c2 33 be 50 2d 56 3e 74 27 44 3d
       0.02228409 -0.17554854 0.20915723 0.047889188
0001e0 58 e6 f3 bd 78 85 ce be 74 80 39 3e e9 8a 0d 3d
       -0.11909169 -0.40336204 0.18115407 0.034556303
0001f0 31 28 db be 3f cd a1 3d 5e 63 b1 bd d1 73 8b bd
       -0.428041 0.07900476 -0.08661531 -0.068091996
000200 d3 44 2f bd d5 58 a8 3c 11 50 50 be b3 83 6e 3d
       -0.042790245 0.02055017 -0.20343043 0.058231067
000210 77 12 cd 3d 95 a6 26 be 8c 75 0a be 4f 62 6b bb
       0.100132875 -0.16274484 -0.13521403 -0.003591675
000220 7c f7 3a 3d ac ba 79 3d c5 ef 8d bd f6 a7 b6 bd
       0.045646176 0.06096904 -0.06930498 -0.08918755
000230 7a 81 5c bb 0e 30 69 bc e3 af 3b 3d c9 a3 da bc
       -0.003364651 -0.014232649 0.045822036 -0.026689427
000240 6f 02 ad 3d 30 9b 46 3c 27 69 a6 3d 75 fd 96 bd
       0.0844773 0.0121219605 0.08125525 -0.07372562
000250 66 9f 2f 3d 35 46 66 3c 35 93 68 bd ef 1b 44 3d
       0.042876624 0.014054825 -0.056781013 0.047878202
000260 9f 5a da bd 73 b3 9f bd 11 75 74 bd 8c 2e 37 3e
       -0.10661816 -0.07797899 -0.059681956 0.1788885
000270 0b 89 0b be b8 00 d6 be 7a f4 17 3f 0a c4 7f 3d
       -0.13626496 -0.41797423 0.59357417 0.062442817
000280 13 7d 29 bf 15 a1 53 3e 42 84 5b bb cd b3 d1 bd
       -0.66206473 0.20666917 -0.003349558 -0.102393724
000290 8f 4d 93 be 27 77 a3 3d 50 76 70 3e b3 0c c7 be
       -0.2877011 0.07981711 0.23482633 -0.38876876
0002a0 3f 69 99 be ce 29 85 3e ee d6 ce bd 7d 16 02 be
       -0.2996311 0.26008457 -0.10099588 -0.12703891
0002b0 6c 9f dd ba 77 5f 77 3e 4b 18 25 be 49 7c 15 be
       -0.0016908473 0.2415751 -0.16122548 -0.14598192
0002c0 72 26 8f 3d b8 9c 93 bd 3e 9a 10 be cb 67 17 be
       0.06989755 -0.07207626 -0.14121339 -0.14785688
0002d0 84 3a 96 3d 79 6b 32 3c 8d 38 22 bd e2 30 55 bd
       0.0733538 0.010889881 -0.039604712 -0.05204857
0002e0 92 b1 34 bd a2 6f f6 3c 17 d0 9d 39 ca 29 9c 3d
       -0.044114657 0.030082528 0.00030100413 0.07625158
0002f0 93 22 f5 bc ab e6 d4 be 40 16 d3 be 90 fd af bd
       -0.029923713 -0.41582236 -0.41227913 -0.08593285
000300 7b 23 64 be 3c 2a 4f bd f9 6d 28 bd 7a ae 29 be
       -0.2227916 -0.050577387 -0.041120503 -0.16570464
000310 8c 69 29 3e 77 9d 6a 3e c2 9e 10 be d0 6e 74 be
       0.16544169 0.2291163 -0.14123061 -0.23870397
000320 9a f1 44 bd a3 e5 11 3d b4 99 a2 3d ee c6 87 3d
       -0.04808197 0.03561939 0.07939473 0.0662974
000330 fc 01 79 bc d6 2e f0 3c bf de f2 3d c5 fd 9b be
       -0.015198227 0.029319208 0.11858892 -0.30467048
000340 ff e5 db 3e 6d e0 38 be a8 4c ed 3e b4 70 cc 3e
       0.4294891 -0.18054362 0.46347547 0.39929736
000350 75 1f 52 be ee 47 9a be 60 41 90 be 16 36 0d 3d
       -0.20519812 -0.30133003 -0.28174877 0.03447541
000360 87 ee 87 3d 71 97 d6 bd 6c f4 52 be 55 a6 98 bd
       0.06637292 -0.10478104 -0.20601052 -0.074536
000370 0c a8 a9 3d c7 c2 60 be 53 13 87 bc 20 ff ab 3d
       0.082840055 -0.21949302 -0.016488707 0.083982706
000380 7d 1d fd 3c 07 b1 aa 3d 54 22 7a 3b e0 e5 ea bd
       0.03089785 0.083345465 0.0038167434 -0.114696264
000390 a3 10 d6 3d 4c 1e 8d 3c fc fc 8c 3b 21 ec a4 bd
       0.10452392 0.01722636 0.004302619 -0.080528505
0003a0 4f ae f9 bb 15 11 33 bd 56 1c 90 3d 6d 07 47 3d
       -0.007619656 -0.043717463 0.07036655 0.048591066
0003b0 4b 52 53 3d f9 9b 38 3d 81 d6 b1 bd a5 6a 8c bd
       0.051592153 0.045070622 -0.086834915 -0.06856278
0003c0 78 d9 96 bd 2e ca 8d bd 60 55 5b 3d 3e 0c 54 bf
       -0.073656976 -0.06923328 0.053548217 -0.8283118
0003d0 c2 29 05 3f d4 aa ab 3e 07 93 eb be bd 44 00 3e
       0.5201684 0.3352877 -0.4601061 0.12526222
0003e0 00 05 b0 3c de e3 00 3e d7 82 9c be bb 37 95 be
       0.02148676 0.12586924 -0.30568573 -0.2914408
0003f0 c9 0d 78 3d e7 d2 8c be 05 93 2b be 2f 05 58 be
       0.06056002 -0.27504656 -0.16755302 -0.21095727

cnn_block_2.2.bias f4 [10]
000000 63 5b ce 3e 2e 2a 12 3e 3f ee 2c 3e 97 56 44 be
       0.40304098 0.14273903 0.16887759 -0.19173656
000010 5f a7 c9 bd b5 3a ab 3d da 2a 27 be 1b 00 c7 bd
       -0.09846377 0.08360807 -0.1632494 -0.09716817
000020 59 8e c0 bc 22 9e 42 be
       -0.023505377 -0.19005635

classifier.1.weight f4 [10, 490]
000000 05 fc c3 3d 50 d0 1c 3e 21 0a 07 3c 99 c7 3c bc
       0.09569553 0.1531384 0.008242161 -0.011522197
000010 b8 be a5 bc 91 24 46 3e d0 c7 1e 3e cc 8c bf 3b
       -0.020232543 0.19349886 0.1550591 0.0058456417
000020 7e f1 81 3b fc 8d a6 3e 4f 36 79 3e 09 3a 30 3c
       0.0039655557 0.325302 0.24337123 0.010756024
000030 a2 da 4f 3c 77 d6 ea bc ab c1 aa bd 09 f3 8f bc
       0.0126864035 -0.028666718 -0.083377205 -0.017571943
000040 3e 69 e6 3d 74 2d b9 3d 84 d5 0a bc c6 5a 09 3d
       0.11250542 0.090418726 -0.008473758 0.033533834
000050 19 61 37 bd ab 30 a6 bd c1 64 b7 bd b4 c8 d5 3d
       -0.044770334 -0.081147514 -0.08954764 0.10438672
000060 97 86 45 ba f4 6b a0 bd 2c 10 6b bb 51 b0 0b bd
       -0.0007535009 -0.078330904 -0.0035867793 -0.034103695
000070 b3 1d e6 bd 33 c7 a8 bd 05 59 e9 3c 0e 4d bc bb
       -0.112361334 -0.08241119 0.02848483 -0.0057464903
000080 11 ca f8 3c 5e a6 8b 3c 7b 7e 84 bd 65 15 90 bd
       0.03036979 0.017047103 -0.06469437 -0.07035331
000090 13 ba 95 3a 0c c3 8f bc 29 44 23 3d 94 de 1d be
       0.0011423252 -0.01754906 0.039859924 -0.15416938
0000a0 4f 99 c0 bd 9c ce 4d 3d 1b 2c 00 3d 16 b3 d3 bc
       -0.09404241 0.050245866 0.031292062 -0.02584223
0000b0 5a 4c 96 bc ae c1 ed bc d6 1a df bd df e2 d1 bd
       -0.018346954 -0.029023018 -0.108937904 -0.1024835
0000c0 0e 06 07 3d a4 51 6e 3e 70 9b 05 3e 92 31 2d be
       0.03296476 0.23273331 0.13047576 -0.16913441
0000d0 1b 83 de bd 43 69 0b 3d 95 cc 06 be fd df 4e 3d
       -0.1086485 0.034035932 -0.1316398 0.05050658
0000e0 cc a8 48 3e 0d 53 93 bd 8b c0 31 be 90 92 3e be
       0.19595641 -0.07193575 -0.17358606 -0.18610597
0000f0 9e de 8f bc 4d 51 5a 3e c4 6a 4a bd eb 45 f9 3d
       -0.017562207 0.21320076 -0.049418226 0.12171539
000100 21 6d f6 3d 62 21 51 bd aa bd e3 bd ac 3e 82 bd
       0.120325334 -0.051057227 -0.1112016 -0.0635961
000110 ff ba 4f 3e f1 c7 19 3d 80 d8 d3 3d 01 3c 24 3d
       0.20286177 0.037544195 0.103440285 0.040096287
000120 f2 c2 05 3e 9a 4d e8 bd e7 05 c8 bd 3c cf 32 3e
       0.13062647 -0.11342926 -0.09766751 0.17461866
000130 aa 2b 08 be e2 a0 a1 3c 4f 16 42 bd 4b 6b c9 3c
       -0.13297907 0.019730035 -0.047384556 0.024587294
000140 da 47 13 3c 42 c5 06 3e f2 9e 22 3e 9c ee eb bd
       0.008989299 0.13161185 0.15880945 -0.115201205
000150 f8 6c 20 be 9e 6e 93 3d f1 e4 37 be ef 05 24 be
       -0.15666568 0.07198833 -0.17958428 -0.16017888
000160 28 da 04 bc 82 6d 9b 3b 84 5f 38 3c 2d 8a de bd
       -0.008108653 0.004743279 0.011253241 -0.10866199
000170 dd 73 d8 bb 17 9b 32 3d 93 4c 5c bd 4e 3d e0 3d
       -0.006605609 0.043604936 -0.053783964 0.10949193
000180 28 5f 12 bc a7 b8 ba 3d a4 fb 86 3d b4 2f 5f 3d
       -0.00893382 0.09117251 0.065909654 0.054488853
000190 4e 7c 4e 3e e0 6a 26 3e ad 90 1a 3e 0b b5 df 3c
       0.20164606 0.16251707 0.15094252 0.027308008
0001a0 7e d9 53 bb fe 5e 2a 3e 69 e8 4c 3d 39 85 2a bd
       -0.003232568 0.16637799 0.05002633 -0.041630957
0001b0 df e3 f3 3d 6f b4 d7 3c 7e d8 97 3c fe 9f a1 3d
       0.11908697 0.026331155 0.018535849 0.07891844
0001c0 a5 de 2f 3e 7e 77 0b 3e 4f be 2a 3e de a2 28 3d
       0.17174776 0.13619801 0.1667416 0.041170947
0001d0 fa 86 1c 3e f6 54 f5 3c 9a af 38 bd 23 2a 02 3d
       0.15285864 0.02994774 -0.04508934 0.031778466
0001e0 43 68 b6 bd 76 97 f4 bd 5e 7a bc bd 60 46 74 bc
       -0.08906605 -0.119429514 -0.09203027 -0.014909357
0001f0 b1 69 b2 bd 87 24 96 bd 72 d0 33 bd 8c 88 de bd
       -0.08711565 -0.07331186 -0.04389996 -0.10865888
000200 f4 89 0b 3d 68 31 c7 bc 30 12 2b bd bf f6 1e be
       0.03406711 -0.02431555 -0.04176539 -0.15523814
000210 28 fc 27 3c b6 30 dd 3c a9 1e b3 bc 7c 53 92 3d
       0.01025299 0.027000766 -0.021865206 0.0714483
000220 e4 17 f3 bd 64 ce 3d bd 89 ca 1c bd e3 25 33 3d
       -0.11869791 -0.046339408 -0.03827909 0.043737303
000230 7a cb d8 bd e3 a5 cc 3b 9e 75 12 3c b4 98 3f be
       -0.10585685 0.006245361 0.008939175 -0.18710595
000240 ec c6 29 bd 67 d0 07 bd d3 7e 0f bd 0c b8 6c 3e
       -0.041449472 -0.033157732 -0.03503306 0.23117083
000250 1d b4 44 3d 99 9c ec bd 64 d3 44 bd 22 6b 8b 3c
       0.048023332 -0.11553306 -0.04805316 0.017018858
000260 45 51 33 3c 54 85 a0 3c 1a e2 a0 3d c4 3e d7 bd
       0.010944669 0.019594826 0.078556255 -0.105100185
000270 b0 77 44 be b3 b9 00 be 68 2a a5 39 67 96 5b be
       -0.19186282 -0.12570839 0.00031502848 -0.21444093
000280 80 cb 14 be 8f e7 b0 3d f2 73 09 3e a6 e8 c5 bd
       -0.14530754 0.08637916 0.13423136 -0.09663515
000290 20 c7 c5 3d 78 0d f0 3d 2e 56 81 3c 53 9e 76 3d
       0.09657121 0.11721319 0.015788164 0.060209583
0002a0 66 ca dd 3d 45 f5 0c 3e 77 bd da bc 26 e8 51 3c
       0.1082962 0.13765438 -0.026701672 0.012811696
0002b0 8d a6 a8 3d be 01 a7 3d 90 1a 2b 3e 82 1b c0 bb
       0.08234892 0.08154629 0.16709352 -0.005862654
0002c0 7e 98 0d 3c dd 83 9e bd f8 9b c8 bd 2d d6 15 bd
       0.008642314 -0.07739995 -0.09795374 -0.036581207
0002d0 2e 64 4d 3d 0b ca 09 3e bb 79 21 be 3f 73 0e 3e
       0.050144367 0.1345598 -0.15769093 0.1391115
0002e0 a3 29 92 bd f0 1c 25 be 05 26 bc bd 2f c3 c7 bd
       -0.07136848 -0.1612432 -0.09186939 -0.09754025
0002f0 c0 b9 36 3e 3c dc 09 be 1a e1 3e bd 76 6a a5 bb
       0.17844296 -0.13462919 -0.046601392 -0.0050480915
000300 68 d8 b9 3b cf 1c eb bd b3 14 ff bd fe b8 00 3e
       0.0056715496 -0.11480104 -0.1245512 0.12570569
000310 f0 1f 1e bd c8 c5 24 be b8 a4 8e bc 56 dc 9d 3d
       -0.038604677 -0.16091073 -0.017412528 0.07708041
000320 10 43 8b 3d e7 45 af 3c 51 08 65 3c ff 8c f3 bc
       0.067999005 0.021395637 0.013979034 -0.029730318
000330 bd da 96 3d 89 08 7c 3d e9 f6 13 bd da c2 c5 3c
       0.0736594 0.061531577 -0.036124144 0.024140764
000340 65 ed bb 3c 85 cb 01 bd 11 4b 04 bd 1e 9e b0 bc
       0.022940347 -0.031688232 -0.03229815 -0.021559771
000350 25 83 bf bd fa 94 e0 bb f4 37 57 3c 68 bb 20 3d
       -0.09351186 -0.006853697 0.013135899 0.039241225
000360 d6 54 c5 3c 47 31 3a bd 66 aa 9d 3c af 33 a9 bd
       0.024088304 -0.04545715 0.019246291 -0.08261811
000370 b5 bf c6 3c 28 43 c0 3d 36 ce 73 3d 82 98 d6 3c
       0.024261335 0.09387809 0.05952283 0.026195768
000380 e6 19 a5 bc 04 ca 8f 3d db 89 1a 3d a3 fa 8b bc
       -0.02015395 0.07020953 0.037729125 -0.017087286
000390 d8 56 47 bd 59 cc 30 3d 22 01 6f bb af de 86 3d
       -0.048666805 0.04316363 -0.003646918 0.06585442
0003a0 23 eb 0d 3d 47 9a 01 bc 6e 73 77 bb 12 cc 87 bc
       0.034648072 -0.007910318 -0.003775801 -0.0165768
0003b0 31 5e 11 3d f6 4a 34 bd 42 06 5c bd a3 5b 5c 3b
       0.03549022 -0.0440168 -0.053716905 0.0033623956
0003c0 1b be c6 bd 4b b2 57 bc f7 06 0a bd cc 99 03 bc
       -0.097042285 -0.013165067 -0.03369805 -0.0080322735
0003d0 86 9f 00 bc 60 2f 4f bd 95 08 bb bd af 65 88 3e
       -0.007850533 -0.05058229 -0.09132496 0.26640078
0003e0 12 a7 04 bd 29 d0 d2 bd a4 d3 68 3d 6e bd 4d 3d
       -0.032385893 -0.1029361 0.05684246 0.050229482
0003f0 02 77 a3 3d 23 f2 c8 3c c5 6f 0d 3c e9 ea 14 3d
       0.07981683 0.024529522 0.008632605 0.03635684

classifier.1.bias f4 [10]
000000 5f bb a8 3d fa 7a 5c be a7 6b a5 3e 8e 9e d9 bc
       0.08238863 -0.21531287 0.32308695 -0.026564863
000010 b9 6d c7 be 9a f5 eb bd 7c 9a 19 3e 90 18 61 3b
       -0.389509 -0.11521454 0.15000337 0.0034346916
000020 4c f0 90 3e a6 65 07 be
       0.28308332 -0.1322237
